PythonCodeAndNN/models/test.pth (torch, 175727 bytes, 140 tensors)

conv1.0.weight f4 [6, 3, 3, 3]
0	0xbb61eac0	-0.0034472197
1	0x3c5fae00	0.013652325
2	0xbe36fdcb	-0.17870252
3	0x3e142041	0.14465429
4	0x3e3781e5	0.17920645
5	0x3e14d815	0.14535554
6	0x3e1a3d8d	0.15062542
7	0xbc918810	-0.017765075
8	0x3d3461f8	0.044038743
9	0x3ced5ba0	0.028974354
10	0xbdabbee2	-0.083860174
11	0xbd6cc00c	-0.057800338
12	0x3e3505b7	0.17677961
13	0xbe0e676a	-0.13906637
14	0xbcc8ffa0	-0.024535954
15	0x3c85e288	0.01634337
16	0x3e04504f	0.1292126
17	0x3dce274a	0.100660875
18	0x3bb1b640	0.005423337
19	0xbe0ac29a	-0.13550797
20	0xbdca6e7e	-0.09884356
21	0x3e3b0e39	0.18267144
22	0xbd27cff4	-0.040969804
23	0xbbce3760	-0.0062932223
24	0x3d3129f8	0.043252915
25	0x3cda2748	0.026630059
26	0xbdd87ffe	-0.105712876
27	0x3dddbdce	0.10827218
28	0x3e2bfe01	0.16796114
29	0x3daf047e	0.08545779
30	0x3c71bfb0	0.0147551745
31	0x3d008cec	0.031384394
32	0x3e3650b3	0.17804222
33	0xbd248de8	-0.040174395
34	0xbe050f78	-0.12994182
35	0xbdfa044b	-0.1220785
36	0x3c46bd10	0.012130037
37	0x3c96f4d8	0.018427297
38	0xbe21b56e	-0.15791866
39	0x3d1c04d4	0.038090542
40	0xbd4d89f8	-0.050180405
41	0xbbf82660	-0.007572934
42	0x3e28a691	0.1646979
43	0xbe435819	-0.19076575
44	0x3df11e72	0.11773385
45	0x3d193d5c	0.037412032
46	0x3dc5190e	0.096239194
47	0xbd098be4	-0.033580676
48	0xbd5e4550	-0.05426532
49	0xbd1aa310	-0.037753165
50	0x3da51c6e	0.08062063
51	0xbdd7cddb	-0.10537311
52	0x3dc04822	0.09388758
53	0xbda4287c	-0.08015534
54	0x3d6f750c	0.058461234
55	0x3d6577a4	0.0560223
56	0x3de08256	0.109623596
57	0xbde5c214	-0.11218658
58	0x3d24c284	0.040224567
59	0xbe0f2ec7	-0.13982688
60	0x3ddb64ba	0.107125714
61	0x3d84c432	0.06482734
62	0x3da68362	0.08130528
63	0x3c8bf9d0	0.017086893
64	0xbd1877f4	-0.03722377
65	0x3e3f82bf	0.1870222
66	0x3c11fe90	0.00891079
67	0x3b9431e0	0.004522547
68	0xbd607518	-0.05479917
69	0x3d7538fc	0.059868798
70	0xbe160cd7	-0.14653336
71	0xbdb40942	-0.08790828
72	0x3d2fa0e4	0.042878047
73	0xbde35eea	-0.11102088
74	0xbcc086d0	-0.023501784
75	0x3d8a3112	0.06747641
76	0xbd36e078	-0.044647664
77	0x3e0de90d	0.13858433
78	0x3d4f33ac	0.050586388
79	0x3e2b83f7	0.1674956
80	0x3e1af081	0.15130807
81	0x3d6f507c	0.058426365
82	0xbd242924	-0.040078297
83	0xbd26aea8	-0.04069391
84	0x3c1ba870	0.009500608
85	0xbda6b556	-0.08140056
86	0x3d6353a8	0.055499703
87	0x3dbf7eea	0.09350379
88	0xbdfbb0f4	-0.122896105
89	0x3d086688	0.033300906
90	0x3d6e590c	0.05819039
91	0xbc9bcfa0	-0.019019902
92	0x3d100f04	0.03517057
93	0xbdddffd9	-0.10839815
94	0xbd9f1f87	-0.07769685
95	0xbd92f80a	-0.07176216
96	0x3caa1750	0.02076307
97	0x3e11accd	0.14226075
98	0x3dd3f666	0.10349731
99	0xbdd80d66	-0.105494305
100	0xbd80f03e	-0.062958226
101	0x3dc8f00a	0.09811409
102	0x3def119a	0.11673279
103	0x3e2f6ae5	0.17130621
104	0x3d7eb40c	0.062183425
105	0xbe2f2e7c	-0.17107576
106	0x3aa85300	0.0012842119
107	0xbe2eec6b	-0.17082374
108	0x3e0f348b	0.13984887
109	0x3dabe966	0.083941266
110	0x3e002585	0.12514313
111	0xbe1fdb3b	-0.15610974
112	0xbe35722b	-0.17719333
113	0x3dfbaaba	0.12288423
114	0x3cf7e918	0.030262515
115	0xbe1ec00e	-0.1550295
116	0xbdaeba5e	-0.085316405
117	0xbddbde31	-0.10735739
118	0xba184500	-0.00058086216
119	0x3deab0ee	0.11459528
120	0x3dcff02e	0.101532325
121	0x3d01fbac	0.031734154
122	0xbe417ecf	-0.1889603
123	0xbd8246fc	-0.063611954
124	0xbda99254	-0.08279863
125	0x3e39149f	0.18074273
126	0xbe0eb228	-0.13935149
127	0xbdfad645	-0.122479
128	0x3d745abc	0.059656844
129	0xbdb1a7a3	-0.08674552
130	0x3dcf35e2	0.10117699
131	0x3e2412d3	0.16022806
132	0x3ddc39aa	0.10753186
133	0x3d5ee3e4	0.054416552
134	0x3e0b4537	0.13600622
135	0x3c2d3090	0.01057066
136	0x3dbad16e	0.09121977
137	0x3d83b1d6	0.06430404
138	0xbc9ce5a0	-0.019152462
139	0x3c831b00	0.016004086
140	0xbe1d9467	-0.15388642
141	0xbe00d180	-0.12579918
142	0x3e1f1fe9	0.15539517
143	0x3c29bf10	0.010360494
144	0xbdfb9c9a	-0.12285729
145	0xbe29c504	-0.16579062
146	0x3e3ab78d	0.18234082
147	0x3e431399	0.19050445
148	0xbe2b7639	-0.16744317
149	0xbd115460	-0.035480857
150	0xbd8003c2	-0.06250717
151	0x3e0e8693	0.13918523
152	0xbe31e2f7	-0.17371736
153	0x3d8bf7e2	0.06834389
154	0x3e346da5	0.17619951
155	0x3dd64572	0.104624644
156	0xbe2ddeec	-0.16979569
157	0x3e07d6f1	0.13265587
158	0x3e2c6dad	0.16838713
159	0xbd4df28c	-0.05028014
160	0x3e1aa065	0.15100248
161	0xbda95def	-0.082698695

conv1.1.weight f4 [6]
0	0x3f800000	1.0
1	0x3f800000	1.0
2	0x3f800000	1.0
3	0x3f800000	1.0
4	0x3f800000	1.0
5	0x3f800000	1.0

conv1.1.bias f4 [6]
0	0x00000000	0.0
1	0x00000000	0.0
2	0x00000000	0.0
3	0x00000000	0.0
4	0x00000000	0.0
5	0x00000000	0.0

conv1.1.running_mean f4 [6]
0	0x00000000	0.0
1	0x00000000	0.0
2	0x00000000	0.0
3	0x00000000	0.0
4	0x00000000	0.0
5	0x00000000	0.0

conv1.1.running_var f4 [6]
0	0x3f800000	1.0
1	0x3f800000	1.0
2	0x3f800000	1.0
3	0x3f800000	1.0
4	0x3f800000	1.0
5	0x3f800000	1.0

body.0.block.0.weight f4 [6, 3, 1, 1]
0	0xbeb60309	-0.3554919
1	0x3dc00760	0.09376407
2	0x3d730f40	0.059340715
3	0x3f03c26a	0.5146853
4	0xbe7fa1d2	-0.24964073
5	0x3ed47568	0.41495824
6	0x3b09a600	0.0021003485
7	0x3e04952c	0.1294753
8	0x3e8c98b6	0.2746026
9	0x3f0420b4	0.516124
10	0xbe4d459c	-0.20046085
11	0x3eb1f266	0.34755248
12	0x3f02d122	0.5110036
13	0xbe8a480b	-0.2700809
14	0xbe537c5e	-0.20652911
15	0xbe920f9d	-0.28527537
16	0x3d373c20	0.044735074
17	0x3eee2b30	0.46517324

body.0.block.1.weight f4 [6]
0	0x3f800000	1.0
1	0x3f800000	1.0
2	0x3f800000	1.0
3	0x3f800000	1.0
4	0x3f800000	1.0
5	0x3f800000	1.0

body.0.block.1.bias f4 [6]
0	0x00000000	0.0
1	0x00000000	0.0
2	0x00000000	0.0
3	0x00000000	0.0
4	0x00000000	0.0
5	0x00000000	0.0

body.0.block.1.running_mean f4 [6]
0	0x00000000	0.0
1	0x00000000	0.0
2	0x00000000	0.0
3	0x00000000	0.0
4	0x00000000	0.0
5	0x00000000	0.0

body.0.block.1.running_var f4 [6]
0	0x3f800000	1.0
1	0x3f800000	1.0
2	0x3f800000	1.0
3	0x3f800000	1.0
4	0x3f800000	1.0
5	0x3f800000	1.0

body.0.block.3.weight f4 [6, 1, 3, 3]
0	0xbdaa8a24	-0.083271295
1	0x3e8de501	0.2771378
2	0x3e1f61a2	0.15564588
3	0x3e400282	0.18750957
4	0xbdf5ddf0	-0.12005222
5	0xbe577cfb	-0.2104377
6	0xbe506046	-0.20349225
7	0x3e8d8d8d	0.27647057
8	0xbe3cdeb3	-0.18444328
9	0x3dbe4cf4	0.092920214
10	0xbbe84340	-0.007088095
11	0xbe727380	-0.23676872
12	0xbe8c32cb	-0.27382502
13	0xbe8b84ba	-0.272497
14	0x3dcca3e0	0.09992194
15	0x3daecbbc	0.08534953
16	0xbe94d8fb	-0.29071793
17	0x3e7efa7a	0.24900237
18	0xbe3bba86	-0.18332872
19	0xbe81bdfc	-0.2534026
20	0x3e12c8a0	0.14334345
21	0xbe510eb8	-0.20415771
22	0xbe53c826	-0.2068182
23	0x3e18635a	0.1488165
24	0x3e5bf812	0.2148135
25	0xbe4e39b6	-0.20139202
26	0x3ea38693	0.3193861
27	0x3e4b04e6	0.19826087
28	0x3e4c4f3a	0.19952098
29	0x3d6e3c98	0.058163255
30	0xbe961ac8	-0.29317307
31	0xbdb9134c	-0.09036884
32	0x3ea97271	0.33095124
33	0xbe8c645f	-0.27420327
34	0xbe8aa168	-0.27076268
35	0x3d927bc4	0.07152513
36	0x3d9b19ac	0.07573256
37	0x3e4b4b02	0.19852832
38	0xbdc92b3c	-0.098226994
39	0xbe42a80e	-0.1900942
40	0x3e119280	0.14216042
41	0xbe8f5422	-0.27993876
42	0x3e1bbd32	0.15208891
43	0xbe591298	-0.21198499
44	0xbdefd5ac	-0.117106766
45	0x3ea33ce5	0.31882396
46	0x3d54f640	0.051992655
47	0xbe86c3e7	-0.26321337
48	0x3e8db793	0.2767912
49	0x3e300392	0.17188862
50	0xbe362408	-0.17787182
51	0x3d45b4a8	0.04826799
52	0xbe8b2b78	-0.27181602
53	0x3c3a3060	0.011364073

body.0.block.4.weight f4 [6]
0	0x3f800000	1.0
1	0x3f800000	1.0
2	0x3f800000	1.0
3	0x3f800000	1.0
4	0x3f800000	1.0
5	0x3f800000	1.0

body.0.block.4.bias f4 [6]
0	0x00000000	0.0
1	0x00000000	0.0
2	0x00000000	0.0
3	0x00000000	0.0
4	0x00000000	0.0
5	0x00000000	0.0

body.0.block.4.running_mean f4 [6]
0	0x00000000	0.0
1	0x00000000	0.0
2	0x00000000	0.0
3	0x00000000	0.0
4	0x00000000	0.0
5	0x00000000	0.0

body.0.block.4.running_var f4 [6]
0	0x3f800000	1.0
1	0x3f800000	1.0
2	0x3f800000	1.0
3	0x3f800000	1.0
4	0x3f800000	1.0
5	0x3f800000	1.0

body.0.block.5.weight f4 [6, 6, 1, 1]
0	0xbcf9dad0	-0.030499846
1	0x3d5df968	0.05419293
2	0xbe949442	-0.29019362
3	0xbe0ebdf2	-0.13939646
4	0x3e52a19c	0.20569462
5	0x3dc7bdc0	0.09752989
6	0xbd3627c0	-0.044471502
7	0x3e1439ec	0.1447522
8	0x3ebc8542	0.36820418
9	0xbdb63b7c	-0.088980645
10	0xbe9b2512	-0.3030172
11	0x3e34af48	0.1764499
12	0x3e9f7374	0.3114277
13	0xbd886a40	-0.066608906
14	0x3d8ab4d8	0.067727745
15	0x3de04378	0.10950369
16	0x3e7d5eb4	0.24743158
17	0xbe788493	-0.24269323
18	0x3ebc55fa	0.36784345
19	0xbe390584	-0.1806851
20	0x3cf394e0	0.029734075
21	0x3e8b7c48	0.27243257
22	0x3e3d85b8	0.18508041
23	0xbe21bf76	-0.15795693
24	0x3e84f77e	0.25970072
25	0x3ec9ff4e	0.39452595
26	0x3e645198	0.2229675
27	0x3e8be59e	0.27323622
28	0x3e8c3a44	0.27388203
29	0x3e34ca10	0.17655206
30	0xbe4f0d8b	-0.2022001
31	0x3e4fb270	0.20282912
32	0x3e5dd504	0.2166329
33	0xbd449720	-0.047995687
34	0x3de72268	0.11285859
35	0x3d9d92a0	0.07693982

body.0.block.6.weight f4 [6]
0	0x3f800000	1.0
1	0x3f800000	1.0
2	0x3f800000	1.0
3	0x3f800000	1.0
4	0x3f800000	1.0
5	0x3f800000	1.0

body.0.block.6.bias f4 [6]
0	0x00000000	0.0
1	0x00000000	0.0
2	0x00000000	0.0
3	0x00000000	0.0
4	0x00000000	0.0
5	0x00000000	0.0

body.0.block.6.running_mean f4 [6]
0	0x00000000	0.0
1	0x00000000	0.0
2	0x00000000	0.0
3	0x00000000	0.0
4	0x00000000	0.0
5	0x00000000	0.0

body.0.block.6.running_var f4 [6]
0	0x3f800000	1.0
1	0x3f800000	1.0
2	0x3f800000	1.0
3	0x3f800000	1.0
4	0x3f800000	1.0
5	0x3f800000	1.0

body.1.block.0.weight f4 [6, 6, 1, 1]
0	0x3ec0a0da	0.3762272
1	0x3ec488d8	0.38385653
2	0x3e022f48	0.12713349
3	0x3d45f0a8	0.04832521
4	0xbd7db8c0	-0.06194377
5	0x3eb30fe2	0.34973055
6	0xbe2a0cc1	-0.16606428
7	0xbe35d8c2	-0.17758468
8	0xbe16b44c	-0.14717215
9	0x3d29dff0	0.04147333
10	0xbc348da0	-0.011020094
11	0x3e5feb60	0.21867132
12	0x3dba3298	0.09091681
13	0xbe6cb7eb	-0.23117034
14	0xbb90b280	-0.00441581
15	0x3e85ad92	0.26108986
16	0xbde5d6bc	-0.11222598
17	0xbe94b9d3	-0.29048023
18	0xbeba8722	-0.36431223
19	0x3e9ecbe6	0.31014937
20	0x3ec6a32c	0.38796365
21	0xbdab92a4	-0.08377579
22	0xbdb49c6c	-0.088188976
23	0x3e479b8c	0.1949293
24	0xbe888ee7	-0.26671526
25	0xbe685448	-0.22688401
26	0x3ebf348e	0.37344784
27	0xbea77c2c	-0.32711923
28	0xbeadc83f	-0.33941838
29	0x3e44cee8	0.19219553
30	0x3ecd7c54	0.40133917
31	0xbe4865b5	-0.19570048
32	0x3aea6e00	0.0017885566
33	0xbe9736ec	-0.2953409
34	0xbde229d4	-0.11043134
35	0x3eb75a2c	0.35810983

body.1.block.1.weight f4 [6]
0	0x3f800000	1.0
1	0x3f800000	1.0
2	0x3f800000	1.0
3	0x3f800000	1.0
4	0x3f800000	1.0
5	0x3f800000	1.0

body.1.block.1.bias f4 [6]
0	0x00000000	0.0
1	0x00000000	0.0
2	0x00000000	0.0
3	0x00000000	0.0
4	0x00000000	0.0
5	0x00000000	0.0

body.1.block.1.running_mean f4 [6]
0	0x00000000	0.0
1	0x00000000	0.0
2	0x00000000	0.0
3	0x00000000	0.0
4	0x00000000	0.0
5	0x00000000	0.0

body.1.block.1.running_var f4 [6]
0	0x3f800000	1.0
1	0x3f800000	1.0
2	0x3f800000	1.0
3	0x3f800000	1.0
4	0x3f800000	1.0
5	0x3f800000	1.0

body.1.block.3.weight f4 [6, 1, 3, 3]
0	0xbe847d2f	-0.25876758
1	0xbdd7435c	-0.10510895
2	0x3e41e192	0.18933704
3	0x3dbb8244	0.091557056
4	0x3da8adf4	0.08236304
5	0x3d94c39c	0.07263872
6	0xbdf50fb6	-0.11965887
7	0x3e80df3d	0.25170317
8	0xbe85a688	-0.26103616
9	0x3d87f890	0.066392064
10	0x3dad7d30	0.08471143
11	0x3d1f7a40	0.038934946
12	0x3c55a8a0	0.013040692
13	0x3dad42f4	0.08460036
14	0x3e9e4541	0.30912212
15	0xbea36db6	-0.3191964
16	0xbe820760	-0.25396252
17	0x3e13d2f6	0.14435944
18	0x3e9c39e9	0.30512932
19	0xbe1394d6	-0.14412245
20	0x3da74fa0	0.08169484
21	0x3e28ef10	0.16497445
22	0xbd0ca318	-0.034335226
23	0x3cde1e90	0.027114183
24	0x3e5f5e46	0.21813306
25	0x3e6cddf6	0.23131546
26	0x3e73bf22	0.2380338
27	0xbdf34c86	-0.1187983
28	0xbd218778	-0.039435834
29	0x3d8009cc	0.062518686
30	0x3e91e0f3	0.28491935
31	0xbe8e6dbe	-0.27818102
32	0x3e535e62	0.20641473
33	0x3de1e8b4	0.11030713
34	0x3e9f569b	0.31120762
35	0x3d77c628	0.06049171
36	0xbe7650de	-0.24054286
37	0x3e200e5e	0.1563048
38	0x3c18c180	0.009323478
39	0x3e8e77e7	0.27825853
40	0x3c814050	0.015777737
41	0xbdd4e200	-0.103946686
42	0xbd9ba194	-0.07599178
43	0xbe5f3543	-0.21797661
44	0x3cab49c0	0.02090919
45	0x3df38eec	0.118924946
46	0xbd321d20	-0.043484807
47	0x3d86f544	0.065897495
48	0x3e94ae41	0.29039195
49	0x3e1c6a68	0.15274966
50	0x3d84e040	0.06488085
51	0x3e5c3ab6	0.21506771
52	0xbd528c78	-0.051403493
53	0xbc2fd2a0	-0.010731369

body.1.block.4.weight f4 [6]
0	0x3f800000	1.0
1	0x3f800000	1.0
2	0x3f800000	1.0
3	0x3f800000	1.0
4	0x3f800000	1.0
5	0x3f800000	1.0

body.1.block.4.bias f4 [6]
0	0x00000000	0.0
1	0x00000000	0.0
2	0x00000000	0.0
3	0x00000000	0.0
4	0x00000000	0.0
5	0x00000000	0.0

body.1.block.4.running_mean f4 [6]
0	0x00000000	0.0
1	0x00000000	0.0
2	0x00000000	0.0
3	0x00000000	0.0
4	0x00000000	0.0
5	0x00000000	0.0

body.1.block.4.running_var f4 [6]
0	0x3f800000	1.0
1	0x3f800000	1.0
2	0x3f800000	1.0
3	0x3f800000	1.0
4	0x3f800000	1.0
5	0x3f800000	1.0

body.1.block.5.weight f4 [6, 6, 1, 1]
0	0xbec100d6	-0.3769595
1	0xbd8007fc	-0.06251523
2	0xbe828e76	-0.25499314
3	0xbe4b1121	-0.19830753
4	0x3ec2f3da	0.3807667
5	0x3dca2b00	0.09871483
6	0x3e83e854	0.2576319
7	0xbe0ae308	-0.13563168
8	0x3e2b0ef4	0.16704923
9	0x3e855466	0.26040953
10	0x3de46510	0.11152089
11	0x3bba6f80	0.0056895614
12	0x3eae4e72	0.34044224
13	0x3e2f99dc	0.17148536
14	0x3d49b6e8	0.0492467
15	0x3d7180d0	0.058960736
16	0x3e2d1450	0.1690228
17	0xbe69b32f	-0.2282226
18	0xbe551433	-0.20808487
19	0x3dd438a0	0.10362363
20	0x3e450ca4	0.19243103
21	0x3e17e88c	0.14834803
22	0x3d4ea5d8	0.05045113
23	0x3d748130	0.059693515
24	0x3e030fb4	0.12798959
25	0xbea528a2	-0.32257563
26	0xbc9300a0	-0.017944634
27	0x3b6c6900	0.0036073327
28	0x3ec69454	0.3878504
29	0xbe1f1a24	-0.15537316
30	0x3e75b1d0	0.23993611
31	0xbecc9dc1	-0.39964107
32	0xbebb0d31	-0.36533502
33	0x3e7a3284	0.24433333
34	0xbe82f526	-0.25577658
35	0x3e8db0c8	0.27673936

body.1.block.6.weight f4 [6]
0	0x3f800000	1.0
1	0x3f800000	1.0
2	0x3f800000	1.0
3	0x3f800000	1.0
4	0x3f800000	1.0
5	0x3f800000	1.0

body.1.block.6.bias f4 [6]
0	0x00000000	0.0
1	0x00000000	0.0
2	0x00000000	0.0
3	0x00000000	0.0
4	0x00000000	0.0
5	0x00000000	0.0

body.1.block.6.running_mean f4 [6]
0	0x00000000	0.0
1	0x00000000	0.0
2	0x00000000	0.0
3	0x00000000	0.0
4	0x00000000	0.0
5	0x00000000	0.0

body.1.block.6.running_var f4 [6]
0	0x3f800000	1.0
1	0x3f800000	1.0
2	0x3f800000	1.0
3	0x3f800000	1.0
4	0x3f800000	1.0
5	0x3f800000	1.0

body.2.block.0.weight f4 [12, 6, 1, 1]
0	0x3b3e4f80	0.0029039085
1	0x3ccf9660	0.02534026
2	0x3ec6822c	0.38771188
3	0xbe3f3cff	-0.18675612
4	0x3ece8288	0.40333962
5	0x3ccd13f0	0.025033921
6	0xbebcf31e	-0.36904234
7	0x3d55b930	0.05217856
8	0xbd08a448	-0.033359796
9	0x3d9286f4	0.071546465
10	0xbe886660	-0.26640606
11	0xbe9b00aa	-0.30273944
12	0xbec12dd4	-0.37730277
13	0x3e4fad9c	0.2028107
14	0xbe8437f2	-0.25823933
15	0x3e975848	0.2955954
16	0x3e50dac8	0.20395958
17	0xbe1002e0	-0.14063597
18	0xbd02d8b8	-0.03194496
19	0x3e873c84	0.26413357
20	0xbdcd8690	-0.100354314
21	0x3e942ed0	0.28941965
22	0x3d8c9fd8	0.06866425
23	0xbe25dcfd	-0.16197582
24	0x3e022e24	0.12712914
25	0xbe92e25e	-0.2868833
26	0xbe782866	-0.24234161
27	0xbe79afdf	-0.24383496
28	0x3bd7a700	0.0065811872
29	0x3e5c89e4	0.21536976
30	0xbe4b3a32	-0.19846418
31	0xbeaf514e	-0.34241718
32	0xbe5aae63	-0.21355586
33	0x3e6cdff8	0.23132312
34	0xbe8d8cce	-0.27646488
35	0xbeaa4185	-0.33253112
36	0xbe91c072	-0.28467137
37	0x3e45d344	0.19318873
38	0x3e8cd6f4	0.27507746
39	0xbea9f9cf	-0.331984
40	0x3eb4eed0	0.3533845
41	0xbe283068	-0.16424716
42	0x3e828ad8	0.25496554
43	0xbe05b894	-0.13058692
44	0x3eb95680	0.36198807
45	0xbdb892dc	-0.09012386
46	0x3e697538	0.22798622
47	0xbea12d98	-0.31480098
48	0x3e2e25f0	0.1700666
49	0xbd6c3088	-0.05766347
50	0x3ec58e38	0.38585067
51	0xbe64f027	-0.22357236
52	0x3ec2405c	0.37939727
53	0x3eb17ae2	0.34664065
54	0x3ed0b604	0.40763867
55	0xbbbafac0	-0.0057061613
56	0x3d8bfdac	0.068354934
57	0x3e776ad0	0.2416184
58	0xbe214fec	-0.15753144
59	0x3e064040	0.13110447
60	0xbebbc48a	-0.36673385
61	0x3ddce078	0.107850015
62	0xbe933ab4	-0.28755724
63	0xbe02be78	-0.1276797
64	0xbe1fb2ba	-0.15595523
65	0x3e944eb2	0.2896629
66	0xbdb5ae18	-0.088710964
67	0xbe80c826	-0.251527
68	0xbe713490	-0.23555207
69	0x3e258988	0.16165745
70	0x3daabc70	0.08336723
71	0xbe96c443	-0.2944661

body.2.block.1.weight f4 [12]
0	0x3f800000	1.0
1	0x3f800000	1.0
2	0x3f800000	1.0
3	0x3f800000	1.0
4	0x3f800000	1.0
5	0x3f800000	1.0
6	0x3f800000	1.0
7	0x3f800000	1.0
8	0x3f800000	1.0
9	0x3f800000	1.0
10	0x3f800000	1.0
11	0x3f800000	1.0

body.2.block.1.bias f4 [12]
0	0x00000000	0.0
1	0x00000000	0.0
2	0x00000000	0.0
3	0x00000000	0.0
4	0x00000000	0.0
5	0x00000000	0.0
6	0x00000000	0.0
7	0x00000000	0.0
8	0x00000000	0.0
9	0x00000000	0.0
10	0x00000000	0.0
11	0x00000000	0.0

body.2.block.1.running_mean f4 [12]
0	0x00000000	0.0
1	0x00000000	0.0
2	0x00000000	0.0
3	0x00000000	0.0
4	0x00000000	0.0
5	0x00000000	0.0
6	0x00000000	0.0
7	0x00000000	0.0
8	0x00000000	0.0
9	0x00000000	0.0
10	0x00000000	0.0
11	0x00000000	0.0

body.2.block.1.running_var f4 [12]
0	0x3f800000	1.0
1	0x3f800000	1.0
2	0x3f800000	1.0
3	0x3f800000	1.0
4	0x3f800000	1.0
5	0x3f800000	1.0
6	0x3f800000	1.0
7	0x3f800000	1.0
8	0x3f800000	1.0
9	0x3f800000	1.0
10	0x3f800000	1.0
11	0x3f800000	1.0

body.2.block.3.weight f4 [12, 1, 3, 3]
0	0xbe1cc6a3	-0.15310149
1	0x3e8eb93f	0.27875707
2	0xbe4a64ee	-0.19765064
3	0xbe86912e	-0.26282638
4	0x3d89799c	0.06712648
5	0x3e16afea	0.14715543
6	0xbe843454	-0.25821173
7	0x3dfaa020	0.12237573
8	0xbe9be8fb	-0.30451187
9	0x3e938c79	0.2881811
10	0xbc3a5c20	-0.011374503
11	0xbd3f1648	-0.04665211
12	0xbcf63350	-0.030053765
13	0xbe52c36e	-0.20582363
14	0xbe11ea93	-0.14249639
15	0xbd033bb8	-0.032039374
16	0xbe471550	-0.19441724
17	0xbe84bc2f	-0.25924823
18	0xbe8d29db	-0.27570996
19	0x3e10890a	0.14114776
20	0x3e824569	0.2544358
21	0x3d30d818	0.043174833
22	0xbd4e9d08	-0.050442725
23	0xbe4eb5e6	-0.20186576
24	0x3d1f1cc0	0.038845778
25	0xbe9c2166	-0.3049423
26	0x3ea51b3d	0.32247344
27	0x3df86aa0	0.12129712
28	0x3e3fd3a2	0.18733075
29	0x3db98a34	0.09059563
30	0x3e7df232	0.24799421
31	0x3d816190	0.06317437
32	0x3cdd9b40	0.027051568
33	0x3d1302a8	0.035891205
34	0x3e3393b2	0.1753681
35	0xbd1a83a8	-0.037723213
36	0xbe840633	-0.2578598
37	0x3e4d520a	0.20050827
38	0x3d3d7fe8	0.04626456
39	0x3e67f106	0.22650537
40	0x3db71250	0.0893904
41	0x3e2507e6	0.16116294
42	0x3d556418	0.05209741
43	0x3e925b05	0.28585067
44	0xbe9fe677	-0.31230518
45	0x3ea8a9c3	0.32942018
46	0xbcd5ad30	-0.026083559
47	0xbe01c0ae	-0.12671158
48	0xbd8e1ea4	-0.06939438
49	0xbded2480	-0.115792274
50	0xbe9d82df	-0.3076391
51	0xbda691bc	-0.081332654
52	0x3e264e6e	0.16240856
53	0xbd474560	-0.048650146
54	0xbdf11130	-0.117708564
55	0x3e2c5c02	0.16831973
56	0x3e0b7c0a	0.13621536
57	0xbea9cd12	-0.3316427
58	0xbdd9ca20	-0.106342554
59	0x3e971dad	0.29514828
60	0x3e9ecbff	0.31015012
61	0x3ea9d915	0.33173433
62	0x3e676686	0.22597703
63	0x3e851a5d	0.25996676
64	0x3c1d0780	0.009584308
65	0xbea3c54a	-0.31986457
66	0x3e91ef49	0.28502873
67	0x3e974211	0.29542592
68	0x3e935d19	0.28781965
69	0x3ca42550	0.020037323
70	0x3df0ffb4	0.117675215
71	0xbe34994b	-0.17636602
72	0x3ea2d1db	0.31800732
73	0xbd72bf78	-0.05926463
74	0xbe9b4302	-0.3032456
75	0x3e8851d1	0.2662492
76	0x3dcb6cec	0.099328846
77	0xbd423a78	-0.04741904
78	0xbe2582bb	-0.16163151
79	0x3e56763e	0.20943543
80	0xbe5e7afb	-0.21726601
81	0xbe54f58e	-0.20796797
82	0xbd92e1ec	-0.071719974
83	0x3e68dda6	0.22740802
84	0xbe94e720	-0.29082584
85	0xbe35810b	-0.17725007
86	0xbea48e48	-0.32139802
87	0x3e979cbd	0.2961177
88	0xbe36c7bb	-0.17849629
89	0xbe08ddd3	-0.13365869
90	0xbe13286e	-0.14370891
91	0x3cb2db40	0.021833062
92	0xbe6d6570	-0.23183227
93	0x3e305e1e	0.17223403
94	0xbb291380	-0.0025798976
95	0x3df0ac14	0.11751571
96	0x3e15d356	0.146314
97	0x3e8a1927	0.26972315
98	0xbde5fafc	-0.11229512
99	0xbd0db2e0	-0.034594417
100	0x3e63fac2	0.22263625
101	0x3e55c852	0.20877197
102	0xbe2265a6	-0.15859088
103	0xbe267676	-0.16256127
104	0x3e12004e	0.14257929
105	0xbdf33550	-0.11875403
106	0xbe8dd1fa	-0.27699262
107	0x3e269518	0.16267812

body.2.block.4.weight f4 [12]
0	0x3f800000	1.0
1	0x3f800000	1.0
2	0x3f800000	1.0
3	0x3f800000	1.0
4	0x3f800000	1.0
5	0x3f800000	1.0
6	0x3f800000	1.0
7	0x3f800000	1.0
8	0x3f800000	1.0
9	0x3f800000	1.0
10	0x3f800000	1.0
11	0x3f800000	1.0

body.2.block.4.bias f4 [12]
0	0x00000000	0.0
1	0x00000000	0.0
2	0x00000000	0.0
3	0x00000000	0.0
4	0x00000000	0.0
5	0x00000000	0.0
6	0x00000000	0.0
7	0x00000000	0.0
8	0x00000000	0.0
9	0x00000000	0.0
10	0x00000000	0.0
11	0x00000000	0.0

body.2.block.4.running_mean f4 [12]
0	0x00000000	0.0
1	0x00000000	0.0
2	0x00000000	0.0
3	0x00000000	0.0
4	0x00000000	0.0
5	0x00000000	0.0
6	0x00000000	0.0
7	0x00000000	0.0
8	0x00000000	0.0
9	0x00000000	0.0
10	0x00000000	0.0
11	0x00000000	0.0

body.2.block.4.running_var f4 [12]
0	0x3f800000	1.0
1	0x3f800000	1.0
2	0x3f800000	1.0
3	0x3f800000	1.0
4	0x3f800000	1.0
5	0x3f800000	1.0
6	0x3f800000	1.0
7	0x3f800000	1.0
8	0x3f800000	1.0
9	0x3f800000	1.0
10	0x3f800000	1.0
11	0x3f800000	1.0

body.2.block.5.weight f4 [12, 12, 1, 1]
0	0xbd4cfb30	-0.05004424
1	0x3e0f7bb8	0.14012039
2	0x3e24cbe0	0.16093397
3	0x3e229b30	0.15879512
4	0xbe16d024	-0.14727837
5	0xbe143ea1	-0.14477016
6	0x3e362e7e	0.17791173
7	0x3e8102fc	0.2519759
8	0xbe8e1b7e	-0.2775535
9	0x3d60a2f8	0.05484292
10	0x3db5591c	0.08854887
11	0xbe182f00	-0.14861679
12	0xbe5b557a	-0.21419325
13	0xbe237361	-0.15961982
14	0x3df69ec0	0.12041998
15	0x3e91e9c0	0.2849865
16	0x3e5efe28	0.2177664
17	0x3e2a4fe2	0.16632035
18	0xbe8869e1	-0.2664328
19	0xbe4e0bf7	-0.20121752
20	0x3e2bd030	0.16778636
21	0xbe7f97c8	-0.24960244
22	0xbe5e29eb	-0.21695678
23	0x3e5697ca	0.2095634
24	0x3e7e7a28	0.24851286
25	0x3e925662	0.2858153
26	0xbdb522c0	-0.08844519
27	0x3e23981c	0.15975994
28	0x3e4b954c	0.19881171
29	0xbce827b0	-0.028339237
30	0x3e808dcc	0.25108182
31	0xbe5d1109	-0.2158853
32	0x3d45b968	0.04827252
33	0x3e186166	0.14880905
34	0xbd6970bc	-0.056992278
35	0x3dbd467c	0.092419595
36	0xbe08d9c4	-0.13364321
37	0xbe06d914	-0.13168746
38	0xbd662d84	-0.05619575
39	0x3e39765c	0.18111557
40	0x3ac77000	0.0015215874
41	0x3e64b7c4	0.22335726
42	0xbe528750	-0.2055943
43	0xbd07f978	-0.033196896
44	0xbc453de0	-0.012038678
45	0xbe2607f1	-0.16213967
46	0x3d7ec598	0.06220016
47	0x3e390f20	0.18072176
48	0x3ba76c80	0.0051093698
49	0xbe6782d1	-0.22608496
50	0xbe8b1e9c	-0.2717179
51	0x3e63b958	0.22238672
52	0xbced51e0	-0.028969705
53	0xbe31f780	-0.1737957
54	0xbd352858	-0.044227928
55	0xbe696ecb	-0.2279617
56	0xbd5d7470	-0.05406612
57	0x3dcf1678	0.101117074
58	0x3e0c0c86	0.13676652
59	0xbe8d29c0	-0.27570915
60	0xbe69db98	-0.22837675
61	0xbe89e0eb	-0.2692941
62	0xbe7f6d03	-0.24943928
63	0xbe8b80d9	-0.2724674
64	0x3e4a3e82	0.19750407
65	0xbde6cf4a	-0.11270006
66	0x3e1bde96	0.15221629
67	0xbd6185a8	-0.055059105
68	0x3e81d9b6	0.25361413
69	0x3de0a974	0.109698206
70	0x3d8bcea0	0.0682652
71	0xbe64c762	-0.22341684
72	0xbd75aef4	-0.0599813
73	0xbdc98ec8	-0.098416865
74	0xbe64c1a1	-0.22339489
75	0x3e1111d0	0.14166951
76	0xbe4a8c3c	-0.19780058
77	0x3e2ae5c6	0.16689214
78	0x3dac90a0	0.084260225
79	0xbe3dd66e	-0.1853883
80	0x3d94c340	0.072638035
81	0xbd921560	-0.07132983
82	0xbe2b6fe4	-0.16741902
83	0x3e28dd82	0.16490749
84	0xbd8dbb86	-0.06920533
85	0xbcd25ed0	-0.025679976
86	0x3d85f20c	0.065403074
87	0x3df4477c	0.11927697
88	0x3e3ab7a0	0.1823411
89	0x3e8cf6c2	0.2753201
90	0xbe706458	-0.23475778
91	0x3e256796	0.16152796
92	0x3d92f198	0.071749866
93	0x3cae4450	0.021272808
94	0x3e7f4dc0	0.24932003
95	0x3e5044a6	0.20338687
96	0xbdf78c34	-0.120872885
97	0xbd57fe90	-0.052733004
98	0x3dd68940	0.10475397
99	0x3cf79cf0	0.0302262
100	0x3e56b8b0	0.2096889
101	0x3d737920	0.059441686
102	0xbcb9e770	-0.022693366
103	0x3e81d10e	0.2535481
104	0x3e163b50	0.14671063
105	0xbdb21d4e	-0.08696996
106	0x3e47aa02	0.19498447
107	0xbe5462d0	-0.20740819
108	0xbd9958ae	-0.074876174
109	0x3d8d7e90	0.069089055
110	0x3e8f657c	0.28007114
111	0xbd916406	-0.07099156
112	0x3c8693f0	0.016427964
113	0x3d434630	0.047674358
114	0xbe15bdf7	-0.14623247
115	0x3da14ddc	0.078761786
116	0x3d37bf30	0.044860065
117	0xbc060060	-0.0081788
118	0x3e64f990	0.22360826
119	0x3e56e450	0.20985532
120	0xbdb3af24	-0.0877364
121	0x3db2acdc	0.087243766
122	0xbd19abf8	-0.037517518
123	0xbe663b7f	-0.22483633
124	0xbe7ed72a	-0.24886766
125	0xbe026837	-0.12735067
126	0x3e6196ac	0.22030133
127	0x3d3f44e8	0.046696573
128	0x3ddafe50	0.106930375
129	0x3e855c54	0.26047003
130	0xbe52cf1f	-0.20586823
131	0xbe3c6772	-0.18398836
132	0xbdba76c8	-0.09104687
133	0xbe261f45	-0.16222866
134	0xba484800	-0.00076401234
135	0xbdc2f708	-0.09519774
136	0x3e83dbec	0.25753725
137	0x3d8bf11c	0.06833097
138	0xbd379de8	-0.044828326
139	0x3c736be0	0.014857262
140	0x3e0f4ea2	0.1399484
141	0x3d99e348	0.075140536
142	0x3d8a0814	0.06739822
143	0x3e48c322	0.19605687

body.2.block.6.weight f4 [12]
0	0x3f800000	1.0
1	0x3f800000	1.0
2	0x3f800000	1.0
3	0x3f800000	1.0
4	0x3f800000	1.0
5	0x3f800000	1.0
6	0x3f800000	1.0
7	0x3f800000	1.0
8	0x3f800000	1.0
9	0x3f800000	1.0
10	0x3f800000	1.0
11	0x3f800000	1.0

body.2.block.6.bias f4 [12]
0	0x00000000	0.0
1	0x00000000	0.0
2	0x00000000	0.0
3	0x00000000	0.0
4	0x00000000	0.0
5	0x00000000	0.0
6	0x00000000	0.0
7	0x00000000	0.0
8	0x00000000	0.0
9	0x00000000	0.0
10	0x00000000	0.0
11	0x00000000	0.0

body.2.block.6.running_mean f4 [12]
0	0x00000000	0.0
1	0x00000000	0.0
2	0x00000000	0.0
3	0x00000000	0.0
4	0x00000000	0.0
5	0x00000000	0.0
6	0x00000000	0.0
7	0x00000000	0.0
8	0x00000000	0.0
9	0x00000000	0.0
10	0x00000000	0.0
11	0x00000000	0.0

body.2.block.6.running_var f4 [12]
0	0x3f800000	1.0
1	0x3f800000	1.0
2	0x3f800000	1.0
3	0x3f800000	1.0
4	0x3f800000	1.0
5	0x3f800000	1.0
6	0x3f800000	1.0
7	0x3f800000	1.0
8	0x3f800000	1.0
9	0x3f800000	1.0
10	0x3f800000	1.0
11	0x3f800000	1.0

body.3.block.0.weight f4 [12, 12, 1, 1]
0	0x3e2c2184	0.1680966
1	0xbcb55c10	-0.022138625
2	0xbe88a2bd	-0.2668666
3	0xbe535441	-0.20637609
4	0x3e27a332	0.16370848
5	0xbd99836c	-0.0749577
6	0x3e01d336	0.12678227
7	0x3dc4c0f0	0.096071124
8	0x3d078fd0	0.033096135
9	0x3df2bedc	0.1185281
10	0x3d961710	0.073286176
11	0x3ccd9460	0.025095165
12	0x3dade76c	0.08491406
13	0xbe8fb907	-0.28070852
14	0xbe8e0cb3	-0.27744064
15	0xbe608196	-0.21924433
16	0xbe85e0b3	-0.26147994
17	0x3e8fe892	0.28107125
18	0x3e7c1120	0.24615908
19	0xbdd34bee	-0.10317217
20	0xbc8aa130	-0.016922563
21	0x3dbd62d0	0.092473626
22	0x3cef7cf0	0.02923438
23	0x3c3ac0a0	0.011398464
24	0x3d8dfa0c	0.06932458
25	0xbda9f370	-0.08298385
26	0xbe1bb6dc	-0.15206474
27	0x3e43461a	0.1906971
28	0xbe689d30	-0.22716212
29	0xbc854c00	-0.016271591
30	0x3e48a2e0	0.19593382
31	0x3e6fcaa8	0.23417151
32	0xbc381d40	-0.0112374425
33	0x3d0b0fc0	0.033950567
34	0x3dc2d2e4	0.095128804
35	0x3e42fc6a	0.19041601
36	0xbdaf5344	-0.085608035
37	0x3e8dcc94	0.27695143
38	0xbe0d9582	-0.13826564
39	0x3a45e600	0.0007549226
40	0x3dbe0300	0.09277916
41	0xbc382180	-0.011238456
42	0x3cfd5d30	0.030928224
43	0x3dd30b2c	0.10304865
44	0x3e82fa8c	0.25581777
45	0x3e90c5ee	0.28276008
46	0xbe6632c4	-0.22480303
47	0xbe83176e	-0.25603813
48	0xbe8115e9	-0.2521203
49	0x3e05384e	0.1300976
50	0xbdde27f6	-0.10847466
51	0xbd29dbec	-0.0414695
52	0xbd0014a0	-0.03126967
53	0xbe68f192	-0.22748402
54	0x3d2ebc38	0.04265997
55	0x3c301c20	0.010748893
56	0x3e2aa65a	0.1666502
57	0x3e19d460	0.15022421
58	0x3e157a60	0.14597464
59	0xbe86b2d1	-0.263083
60	0xbe8a08e3	-0.26959905
61	0xbe81dd56	-0.25364178
62	0x3bc384c0	0.005966753
63	0xbe1f01a8	-0.15527976
64	0x3ddaa5a0	0.10676122
65	0xbe8e5565	-0.27799526
66	0xbc38a9e0	-0.01127097
67	0xbd8f258e	-0.06989585
68	0x3e080628	0.13283598
69	0xbd4c8be8	-0.049938112
70	0xbdd8dadc	-0.10588619
71	0x3e92ad8a	0.28648025
72	0xbe565058	-0.20929086
73	0xbd1c7e18	-0.03820619
74	0x3e14dfd2	0.14538506
75	0x3e8451fe	0.25843805
76	0x3dc51918	0.09623927
77	0x3df5a954	0.119951874
78	0xbbcaebc0	-0.0061926544
79	0xbe7ec0a8	-0.2487818
80	0xbe04081d	-0.1289372
81	0x3e6a4d64	0.22881085
82	0xbd778e28	-0.060438305
83	0xbda41a4c	-0.08012828
84	0x3d2ef1b8	0.04271099
85	0xbdaace6a	-0.083401516
86	0xbddf6b7e	-0.109091744
87	0xbda1c5d2	-0.07899059
88	0xbe62abe3	-0.22135882
89	0x3dd50b6c	0.10402569
90	0xbd8eb5c0	-0.0696826
91	0xbdcb6428	-0.09931213
92	0xbe7cb3f2	-0.24678019
93	0x3da49f1c	0.0803816
94	0x3d44f2c0	0.048083067
95	0x3decc244	0.11560491
96	0xbe925975	-0.28583875
97	0xbe5c985e	-0.21542498
98	0xbe00c7bf	-0.12576197
99	0x3e8b2d12	0.27182823
100	0x3db9d620	0.09074044
101	0x3d76b6f8	0.060233086
102	0xbe76d4d0	-0.24104619
103	0xbe5cd5bb	-0.21565907
104	0x3e3103de	0.17286631
105	0x3e930668	0.28715825
106	0x3d8467d8	0.06465119
107	0xbdb27bea	-0.08715041
108	0xbd9c7050	-0.076386094
109	0xbe220dcb	-0.15825574
110	0xbe86456c	-0.2622484
111	0xbdc63e76	-0.09679882
112	0xbd9e8d38	-0.07741779
113	0xbddacde4	-0.10683802
114	0x3e05c184	0.13062102
115	0xbe4ccec6	-0.20000753
116	0xbd9ede24	-0.07757214
117	0x3e58bc88	0.21165669
118	0xbe43c2e6	-0.19117317
119	0x3e5780de	0.21045253
120	0x3e8afca8	0.27145886
121	0xbe8cc297	-0.2749221
122	0xbe1b1e30	-0.15148234
123	0xbd7ba7ac	-0.0614392
124	0x3d841968	0.06450158
125	0x3e4dc3f8	0.20094287
126	0xbd8fad90	-0.07015526
127	0xbd89a65c	-0.06721184
128	0xbe2dc970	-0.16971374
129	0xbe1de7f4	-0.15420514
130	0x3e2701b0	0.16309237
131	0xbbb62f40	-0.005559832
132	0xbe8685a5	-0.26273838
133	0x3e8cab06	0.2747423
134	0x3d3364d0	0.043797314
135	0xbe877d17	-0.26462623
136	0xbe4c9648	-0.19979203
137	0x3ded4884	0.11586097
138	0x3da503f4	0.080573946
139	0xbdf9ef0e	-0.12203799
140	0xbe2d7332	-0.16938475
141	0x3e88bc26	0.26706046
142	0xbe937e12	-0.28807122
143	0xbe35b7b8	-0.17745864

body.3.block.1.weight f4 [12]
0	0x3f800000	1.0
1	0x3f800000	1.0
2	0x3f800000	1.0
3	0x3f800000	1.0
4	0x3f800000	1.0
5	0x3f800000	1.0
6	0x3f800000	1.0
7	0x3f800000	1.0
8	0x3f800000	1.0
9	0x3f800000	1.0
10	0x3f800000	1.0
11	0x3f800000	1.0

body.3.block.1.bias f4 [12]
0	0x00000000	0.0
1	0x00000000	0.0
2	0x00000000	0.0
3	0x00000000	0.0
4	0x00000000	0.0
5	0x00000000	0.0
6	0x00000000	0.0
7	0x00000000	0.0
8	0x00000000	0.0
9	0x00000000	0.0
10	0x00000000	0.0
11	0x00000000	0.0

body.3.block.1.running_mean f4 [12]
0	0x00000000	0.0
1	0x00000000	0.0
2	0x00000000	0.0
3	0x00000000	0.0
4	0x00000000	0.0
5	0x00000000	0.0
6	0x00000000	0.0
7	0x00000000	0.0
8	0x00000000	0.0
9	0x00000000	0.0
10	0x00000000	0.0
11	0x00000000	0.0

body.3.block.1.running_var f4 [12]
0	0x3f800000	1.0
1	0x3f800000	1.0
2	0x3f800000	1.0
3	0x3f800000	1.0
4	0x3f800000	1.0
5	0x3f800000	1.0
6	0x3f800000	1.0
7	0x3f800000	1.0
8	0x3f800000	1.0
9	0x3f800000	1.0
10	0x3f800000	1.0
11	0x3f800000	1.0

body.3.block.3.weight f4 [12, 1, 3, 3]
0	0x3b215880	0.00246194
1	0xbd77add8	-0.060468525
2	0x3e5784c2	0.21046737
3	0xbdc7406c	-0.09729084
4	0x3e944c95	0.28964677
5	0x3dc6ccb4	0.09707013
6	0x3e231028	0.15924132
7	0x3d563938	0.05230066
8	0xbcb9bc40	-0.022672772
9	0xbe917410	-0.2840886
10	0xbded247c	-0.115792245
11	0xbe60eb73	-0.21964817
12	0xbe0c9ef3	-0.1373251
13	0x3e3682ea	0.17823377
14	0xbcac3230	-0.021020025
15	0x3e26b730	0.16280818
16	0xbcb8dd80	-0.022566557
17	0x3e861385	0.26186767
18	0x3cae8a90	0.021306306
19	0xbe60799e	-0.21921393
20	0xbe516206	-0.20447549
21	0xbd601468	-0.05470696
22	0xbd6333d8	-0.055469364
23	0x3d1775a0	0.03697741
24	0xbe7773a3	-0.24165206
25	0x3dba511c	0.09097502
26	0xbd880ee0	-0.06643462
27	0x3d51c3f8	0.05121228
28	0x3e8c31c3	0.27381715
29	0x3e91f4e3	0.28507146
30	0x3d2531e0	0.040330768
31	0xbe5488fe	-0.20755383
32	0x3da5e810	0.08100903
33	0xbe2688d6	-0.16263136
34	0x3e9829fd	0.29719535
35	0x3e3c075a	0.1836218
36	0x3dc3310c	0.09530839
37	0xbe273f90	-0.16332841
38	0x3e2ad8ae	0.16684219
39	0xbea8a600	-0.32939148
40	0xbe1fad36	-0.15593418
41	0x3e827d39	0.25486162
42	0x3e6ff83a	0.23434535
43	0x3e07d822	0.13266042
44	0x3c56fce0	0.013121814
45	0xbdcfda3c	-0.10149047
46	0xbea9c84a	-0.3316062
47	0x3e99c235	0.3003098
48	0xbe50cbbe	-0.20390221
49	0xbe820bde	-0.2539968
50	0x3dc2f434	0.09519234
51	0xbd8cc2cc	-0.06873092
52	0xbd86305c	-0.065521926
53	0x3c4f19e0	0.012640446
54	0x3e08dc52	0.13365296
55	0x3c127020	0.0089378655
56	0x3c7fb180	0.015606284
57	0xbda7d040	-0.081940174
58	0x3e5e9846	0.21737775
59	0xbdc519c6	-0.096240565
60	0x3e20aa68	0.15690005
61	0x3e2eb266	0.17060241
62	0x3cac3f90	0.021026403
63	0x3e13be00	0.14427948
64	0x3c895590	0.016764432
65	0x3dc19bbc	0.09453532
66	0xbdb953c0	-0.09049177
67	0x3e8a13eb	0.2696832
68	0xbe74fc63	-0.23924403
69	0x3e2c335a	0.16816464
70	0xbe9da356	-0.30788678
71	0x3bd5f740	0.0065297186
72	0xbe6ce1e3	-0.23133044
73	0xbbd5dd00	-0.0065265894
74	0xbe9b383e	-0.30316347
75	0xbe59d54e	-0.21272776
76	0x3e9dbe11	0.30809072
77	0xbe828474	-0.2549168
78	0xbe9217f8	-0.28533912
79	0xbdea121c	-0.11429235
80	0x3cd81390	0.026376516
81	0xbde1b050	-0.11019957
82	0xbe731b7b	-0.23740952
83	0x3e35740a	0.17720047
84	0x3e007f5a	0.12548581
85	0x3e5a9aa2	0.2134805
86	0xbd92e420	-0.07172418
87	0xbe3afc10	-0.18260217
88	0xbea37f3b	-0.31933007
89	0x3d0cd240	0.034380198
90	0xbe66f7b0	-0.22555423
91	0xbe87419a	-0.26417238
92	0x3ea81c17	0.3283393
93	0x3e0b35f2	0.13594797
94	0xbe0c1580	-0.13680077
95	0xbe1627e6	-0.14663658
96	0xbd521a18	-0.051294416
97	0xbe66451b	-0.22487299
98	0xbc1edaa0	-0.009695679
99	0xbe009433	-0.12556534
100	0x3e229e50	0.15880704
101	0x3e54603a	0.20739833
102	0xbea394be	-0.3194942
103	0xbe9ae302	-0.30251318
104	0x3cf52c70	0.029928416
105	0x3e2db09a	0.169619
106	0xbd3ec178	-0.046571225
107	0xbe6e7fb0	-0.23290896

body.3.block.4.weight f4 [12]
0	0x3f800000	1.0
1	0x3f800000	1.0
2	0x3f800000	1.0
3	0x3f800000	1.0
4	0x3f800000	1.0
5	0x3f800000	1.0
6	0x3f800000	1.0
7	0x3f800000	1.0
8	0x3f800000	1.0
9	0x3f800000	1.0
10	0x3f800000	1.0
11	0x3f800000	1.0

body.3.block.4.bias f4 [12]
0	0x00000000	0.0
1	0x00000000	0.0
2	0x00000000	0.0
3	0x00000000	0.0
4	0x00000000	0.0
5	0x00000000	0.0
6	0x00000000	0.0
7	0x00000000	0.0
8	0x00000000	0.0
9	0x00000000	0.0
10	0x00000000	0.0
11	0x00000000	0.0

body.3.block.4.running_mean f4 [12]
0	0x00000000	0.0
1	0x00000000	0.0
2	0x00000000	0.0
3	0x00000000	0.0
4	0x00000000	0.0
5	0x00000000	0.0
6	0x00000000	0.0
7	0x00000000	0.0
8	0x00000000	0.0
9	0x00000000	0.0
10	0x00000000	0.0
11	0x00000000	0.0

body.3.block.4.running_var f4 [12]
0	0x3f800000	1.0
1	0x3f800000	1.0
2	0x3f800000	1.0
3	0x3f800000	1.0
4	0x3f800000	1.0
5	0x3f800000	1.0
6	0x3f800000	1.0
7	0x3f800000	1.0
8	0x3f800000	1.0
9	0x3f800000	1.0
10	0x3f800000	1.0
11	0x3f800000	1.0

body.3.block.5.weight f4 [12, 12, 1, 1]
0	0xbc263e80	-0.010146737
1	0xbe38e83c	-0.1805734
2	0x3e2dc78e	0.16970655
3	0x3e7ea5dc	0.24867958
4	0xbd9db660	-0.07700801
5	0xbd3040e4	-0.043030635
6	0x3db5ca10	0.08876431
7	0xbe027be4	-0.12742573
8	0x3e581d46	0.21104917
9	0xbcc56ec0	-0.024100661
10	0xbe6a0016	-0.22851595
11	0xbe331c08	-0.17491162
12	0xbe8fdec7	-0.28099653
13	0x3df1cfc4	0.11807206
14	0x3e8f1e1c	0.2795266
15	0x3e17f006	0.14837655
16	0xbe4afc64	-0.19822842
17	0xbe6474ac	-0.22310132
18	0xbe0ecfb6	-0.13946423
19	0xbe34484c	-0.17605704
20	0xbe9158ec	-0.28388155
21	0x3ddf7594	0.10911098
22	0xbddd6d02	-0.10811807
23	0xbe0ef0f5	-0.13959105
24	0xbc547720	-0.012967855
25	0x3e5d49f0	0.21610236
26	0x3e839c5e	0.25705236
27	0xbe821905	-0.25409713
28	0xbe68cd20	-0.22734499
29	0xbdda1b34	-0.1064972
30	0xbe59d3c1	-0.21272184
31	0xbdd48234	-0.10376397
32	0x3d266688	0.040625125
33	0xbd925462	-0.07145001
34	0x3bea9240	0.0071585476
35	0xbd473104	-0.04863073
36	0x3cb47fc0	0.022033572
37	0x3e426c4a	0.18986621
38	0x3c69c540	0.0142682195
39	0x3df7b2ec	0.120946735
40	0x3dc397b0	0.095504165
41	0xbe044161	-0.12915565
42	0xbdd96580	-0.10615063
43	0x3e11bab4	0.14231378
44	0xbe2ff677	-0.17183863
45	0xbe736b0e	-0.23771307
46	0x3e84ac4c	0.25912702
47	0x3e91f9e4	0.28510964
48	0x3e810532	0.25199276
49	0xbd64f68c	-0.055899188
50	0xbe67da77	-0.22641931
51	0x3d90ece0	0.0707643
52	0x3e771268	0.24128115
53	0x3cb164e0	0.021654546
54	0x3d8d8830	0.06910741
55	0x3e60eb80	0.21964836
56	0xbe078835	-0.13235553
57	0xbd1a30c8	-0.037644178
58	0x3e4e7f48	0.20165741
59	0xbe7b5bc8	-0.2454673
60	0x3e56eae4	0.20988041
61	0x3d75b700	0.059988976
62	0xbe689b77	-0.22715555
63	0x3e5620c4	0.20910937
64	0xbe1361a6	-0.14392719
65	0x3e5100e8	0.20410502
66	0x3e77bd18	0.24193227
67	0x3e520afe	0.20512006
68	0x3d8dc500	0.069223404
69	0xbda75cc4	-0.081719905
70	0x3e7e5c50	0.24839902
71	0xbb08dc00	-0.0020883083
72	0x3d9fabc8	0.077964365
73	0xbe3f3108	-0.18671048
74	0x3da115ac	0.07865462
75	0x3e4fd086	0.20294389
76	0xbdff15da	-0.1245534
77	0xbe8721da	-0.26393014
78	0x3dd3ba90	0.10338318
79	0xbdf1a112	-0.117983
80	0xbe8d56e7	-0.27605364
81	0x3e3fa1bc	0.1871404
82	0x3d78f3d0	0.060779393
83	0xbe875f04	-0.2643968
84	0xbe817992	-0.25288063
85	0x3db37198	0.08761901
86	0xbe0b99fd	-0.1363296
87	0x3e2fbb4e	0.17161295
88	0xbe64c73b	-0.22341625
89	0x3e4091a8	0.18805563
90	0xbe8c13fd	-0.27359
91	0xbe487740	-0.1957674
92	0x3e864156	0.26221722
93	0xbd331ee4	-0.04373063
94	0xbde98670	-0.11402595
95	0x3d354748	0.044257432
96	0x3c97d960	0.01853627
97	0x3e4be212	0.19910458
98	0x3e792bf0	0.24333167
99	0xbe34fe28	-0.17675078
100	0x3cc92630	0.024554342
101	0x3e831ae8	0.25606465
102	0xbd96214a	-0.07330568
103	0xbd55c1e8	-0.052186877
104	0xbe4248fa	-0.18973151
105	0x3e60e898	0.21963727
106	0xbdd532cc	-0.10410079
107	0xbe85e680	-0.2615242
108	0xbc391c80	-0.011298299
109	0x3dcbee50	0.09957564
110	0xbca20d90	-0.019781858
111	0x3de801d0	0.11328471
112	0xbccc5500	-0.024942875
113	0x3d16ad50	0.036786377
114	0x3df4d1b4	0.1195406
115	0xbe8e01dd	-0.27735797
116	0xbcd910e0	-0.026497304
117	0x3e5657e6	0.20931968
118	0xbd707a18	-0.058710188
119	0x3e838b14	0.25692046
120	0x3ddca498	0.10773581
121	0xbe90b55b	-0.28263363
122	0x3e403c34	0.18772966
123	0xbda5ba96	-0.08092229
124	0x3d823cf4	0.06359282
125	0xbd722fcc	-0.059127614
126	0x3e704ee0	0.23467588
127	0xbe304898	-0.17215192
128	0xbe1322af	-0.143687
129	0xbd019870	-0.031639516
130	0x3e908f12	0.28234154
131	0x3e6b1cd0	0.2296021
132	0x3d88f9d8	0.06688279
133	0xbe7200b0	-0.23633075
134	0x3e16d632	0.14730147
135	0x3b51d300	0.0032016635
136	0xbe8e99c2	-0.27851683
137	0xbe7683ab	-0.24073665
138	0x3e4c6cbc	0.19963354
139	0xbe7aa7d4	-0.24478084
140	0x3e46b8aa	0.19406381
141	0xbdc91cfe	-0.09819983
142	0x3e41333c	0.188672
143	0x3e18ef72	0.14935091

body.3.block.6.weight f4 [12]
0	0x3f800000	1.0
1	0x3f800000	1.0
2	0x3f800000	1.0
3	0x3f800000	1.0
4	0x3f800000	1.0
5	0x3f800000	1.0
6	0x3f800000	1.0
7	0x3f800000	1.0
8	0x3f800000	1.0
9	0x3f800000	1.0
10	0x3f800000	1.0
11	0x3f800000	1.0

body.3.block.6.bias f4 [12]
0	0x00000000	0.0
1	0x00000000	0.0
2	0x00000000	0.0
3	0x00000000	0.0
4	0x00000000	0.0
5	0x00000000	0.0
6	0x00000000	0.0
7	0x00000000	0.0
8	0x00000000	0.0
9	0x00000000	0.0
10	0x00000000	0.0
11	0x00000000	0.0

body.3.block.6.running_mean f4 [12]
0	0x00000000	0.0
1	0x00000000	0.0
2	0x00000000	0.0
3	0x00000000	0.0
4	0x00000000	0.0
5	0x00000000	0.0
6	0x00000000	0.0
7	0x00000000	0.0
8	0x00000000	0.0
9	0x00000000	0.0
10	0x00000000	0.0
11	0x00000000	0.0

body.3.block.6.running_var f4 [12]
0	0x3f800000	1.0
1	0x3f800000	1.0
2	0x3f800000	1.0
3	0x3f800000	1.0
4	0x3f800000	1.0
5	0x3f800000	1.0
6	0x3f800000	1.0
7	0x3f800000	1.0
8	0x3f800000	1.0
9	0x3f800000	1.0
10	0x3f800000	1.0
11	0x3f800000	1.0

body.4.block.0.weight f4 [24, 12, 1, 1]
0	0xbd8f4968	-0.06996423
1	0x3e2155d4	0.15755397
2	0x3e17da28	0.14829314
3	0x3d4e94c8	0.050434858
4	0x3e4fd014	0.2029422
5	0x3e83283c	0.25616634
6	0x3e4ca766	0.19985732
7	0x3e4e061a	0.20119515
8	0xbdbd29c2	-0.0923648
9	0x3e6ae784	0.22939879
10	0xbd41c55c	-0.047307357
11	0xbe80c956	-0.25153607
12	0x3e8ae1f2	0.27125508
13	0xbcd298e0	-0.025707662
14	0x3c90f430	0.017694563
15	0xbdf094c0	-0.11747122
16	0xbe16b98b	-0.14719217
17	0xbc4082e0	-0.011749953
18	0xbe485be8	-0.1956631
19	0xbe81cb48	-0.25350404
20	0x3d865c8c	0.06560621
21	0x3e5baf68	0.21453631
22	0xbe026624	-0.12734276
23	0x3ad72300	0.0016413629
24	0xbe848637	-0.25883648
25	0xbde573ac	-0.11203703
26	0x3e824cde	0.2544927
27	0xbde24548	-0.110483706
28	0x3df3c978	0.119036615
29	0x3e1e2b68	0.15446246
30	0x3e89e27e	0.26930612
31	0xbdc36f48	-0.095427096
32	0x3d8d2004	0.06890872
33	0xbe59c538	-0.21266639
34	0x3ca83800	0.020534515
35	0x3c4e3580	0.012585998
36	0xbe8177a4	-0.2528659
37	0xbe4ff09d	-0.2030663
38	0xbe617a5c	-0.22019333
39	0xbd8e362c	-0.06943926
40	0x3dd8692c	0.10566935
41	0xbe8d8614	-0.27641356
42	0x3c7e5f80	0.015525699
43	0x3e3bb62e	0.18331215
44	0xbe363120	-0.17792177
45	0xbd20c9c0	-0.039254904
46	0x3e8c4542	0.2739659
47	0x3b930d00	0.0044876337
48	0xbe1eebe8	-0.15519679
49	0x3dce7af0	0.10082042
50	0x3e78e8c8	0.24307549
51	0x3dfa6324	0.12225941
52	0x3e4b1366	0.19831619
53	0x3e843edc	0.25829208
54	0xbda87efe	-0.08227347
55	0x3dd67f08	0.10473448
56	0xbe40d04f	-0.18829463
57	0x3d8007a8	0.0625146
58	0x3e6f9064	0.23394924
59	0x3c7a1780	0.015264392
60	0x3d923b10	0.071401715
61	0x3d3b34d0	0.045704663
62	0x3e715844	0.23568827
63	0xbe26bdf1	-0.16283394
64	0xbe10e873	-0.14151172
65	0x3c0fd060	0.008777708
66	0xbdc21e0e	-0.09478389
67	0x3d9344f4	0.07190886
68	0xbe925406	-0.2857973
69	0xbdc9540e	-0.09830485
70	0x3e2b1e6e	0.16710827
71	0xbd068140	-0.032838106
72	0xbdf493fa	-0.11942287
73	0x3e6a07d0	0.22854543
74	0xbe4a9e77	-0.19787012
75	0x3e4079a0	0.18796396
76	0xbdf9437e	-0.12171076
77	0xbab3b800	-0.0013711452
78	0x3d8976f4	0.06712142
79	0xbd017548	-0.03160599
80	0x3e2d272c	0.16909474
81	0x3e3163ac	0.17323178
82	0x3dbc4cac	0.091943115
83	0xbe80bfec	-0.25146425
84	0x3bcbe680	0.006222546
85	0x3e4ea212	0.20179012
86	0xbabacf00	-0.0014252365
87	0x3e206b56	0.15665945
88	0x3e04c5d0	0.12966084
89	0xbe08169f	-0.1328988
90	0xbdcb8984	-0.099383384
91	0x3ded4858	0.11586064
92	0x3e675064	0.2258926
93	0x3e548900	0.20755386
94	0xbe6c8ce6	-0.23100623
95	0x3ddf8f60	0.109160185
96	0x3e8ee2e4	0.2790748
97	0x3e54024c	0.20704001
98	0xbdfe9e3c	-0.124325246
99	0x3e3ccd48	0.18437684
100	0xbe0c7227	-0.1371542
101	0xbe80ee52	-0.25181824
102	0xbd88f72a	-0.06687768
103	0x3e85f62a	0.2616437
104	0x3dfdc268	0.12390596
105	0xbdb1ba3c	-0.086780995
106	0xbe015de5	-0.12633474
107	0x3e419420	0.18904161
108	0xbe13420a	-0.1438066
109	0xbe927caf	-0.2861075
110	0xbe244b3c	-0.16044325
111	0x3df5786c	0.11985859
112	0xbe181494	-0.148516
113	0x3e053cea	0.13011518
114	0xbe2d7c2e	-0.16941902
115	0x3d679ad0	0.056544125
116	0xbe5bb2f2	-0.21454981
117	0xbda350e0	-0.0797441
118	0xbd0697a8	-0.032859474
119	0xbd83f1ee	-0.06442629
120	0xbe42632e	-0.18983147
121	0x3e0b76d4	0.13619548
122	0x3e5e8374	0.21729833
123	0x3e41331c	0.18867153
124	0xbe35d10f	-0.17755531
125	0x3e7e683c	0.2484445
126	0x3d22ac48	0.03971508
127	0xbe0f01fd	-0.13965602
128	0x3e9181e8	0.28419423
129	0x3d95622c	0.072941154
130	0x3ce8b3f0	0.028406113
131	0xbe49ca71	-0.19706132
132	0x3e1f2f10	0.15545297
133	0xbe30781b	-0.17233317
134	0xbdf60af2	-0.120138064
135	0xbe6f1166	-0.2334648
136	0x3d80ede8	0.06295377
137	0x3e420154	0.18945819
138	0x3e85fc34	0.26168978
139	0x3d71a798	0.05899772
140	0x3e8baf98	0.27282405
141	0x3e214d5a	0.15752164
142	0xbd3bc04c	-0.045837685
143	0xbde14740	-0.10999918
144	0x3e514dd6	0.20439848
145	0xbd534780	-0.05158186
146	0x3e1d5280	0.15363503
147	0x3d623bd0	0.055232823
148	0xbd121a28	-0.035669476
149	0x3d6fab60	0.058513045
150	0xbe889d43	-0.2668248
151	0x3ce383f0	0.027772874
152	0xbc6c58c0	-0.0144254565
153	0x3d6b6e08	0.05747798
154	0xbe5f766a	-0.21822515
155	0xbe4cca88	-0.19999135
156	0x3e136162	0.14392617
157	0x3de57934	0.11204758
158	0x3e6513cc	0.22370833
159	0x3e872a94	0.26399672
160	0xbe6d3614	-0.2316516
161	0x3e17cda8	0.14824545
162	0x3e5b8f2c	0.21441334
163	0x3e56aa12	0.20963314
164	0x3d186cb8	0.037213057
165	0x3d81e44c	0.06342372
166	0xbe1e5fd1	-0.15466239
167	0xbceee600	-0.029162407
168	0xbd9010c6	-0.07034449
169	0xbe42ff2a	-0.1904265
170	0xbe3e2549	-0.1856891
171	0x3e5094a0	0.20369196
172	0x3e700e04	0.23442847
173	0x3def579c	0.11686632
174	0x3e283704	0.16427237
175	0xbe2e20e8	-0.1700474
176	0x3d791d78	0.06081912
177	0xbcace630	-0.021105856
178	0x3d6cfd28	0.057858616
179	0xbcfe4710	-0.031039745
180	0x3dc1383c	0.09434554
181	0xbd11b7b8	-0.0355756
182	0x3e856f4c	0.26061475
183	0xbe77018a	-0.24121681
184	0xbe1dedd8	-0.15422761
185	0x3d45ce58	0.048292488
186	0x3e83dc46	0.25753993
187	0xbe5d1d3c	-0.21593183
188	0xbe1d7c4a	-0.15379444
189	0x3dc80ed8	0.09768456
190	0x3e3ffefa	0.1874961
191	0x3e8cc8cc	0.27496946
192	0x3e38e366	0.18055496
193	0xbc8e07e0	-0.01733774
194	0x3d6fd6c0	0.05855441
195	0x3d0181a8	0.03161779
196	0xbd949b4e	-0.072561845
197	0x3e4737fa	0.19454947
198	0x3cdc9fc0	0.026931643
199	0xbe13d6ed	-0.14437456
200	0xbe84b3d6	-0.25918454
201	0xbd8e2a84	-0.06941703
202	0x3e1977e8	0.14987147
203	0x3e81f78c	0.25384176
204	0x3e58c070	0.21167159
205	0x3e77c494	0.24196082
206	0xbcc331b0	-0.023827404
207	0x3cf34f50	0.029700905
208	0xbe28906c	-0.16461343
209	0xbd8a10ce	-0.067414865
210	0xbe4e8718	-0.20168722
211	0xbd812e0c	-0.06307611
212	0x3c1d7d20	0.009612352
213	0xbdcd785c	-0.10032722
214	0xbe3459ce	-0.17612383
215	0x3e61ce68	0.22051394
216	0x3d21a788	0.03946641
217	0xbdda0498	-0.106454074
218	0xbc81ab50	-0.015828758
219	0xba608400	-0.00085645914
220	0xbe5a351e	-0.21309325
221	0x3e3937c2	0.18087676
222	0x3e73e0ec	0.2381627
223	0x3dd90388	0.10596377
224	0x3ce2db70	0.027692527
225	0xbe11049b	-0.14161913
226	0x3e355336	0.17707524
227	0xbe8486d3	-0.25884113
228	0xbe7f26fb	-0.24917214
229	0xbe0bb678	-0.13643825
230	0x3e6e4f18	0.2327236
231	0xbe8d40b6	-0.27588433
232	0xbe8b9db1	-0.27268746
233	0xbc7c9040	-0.015415251
234	0x3e0e8836	0.13919148
235	0xbca94fe0	-0.02066797
236	0xbdd02a88	-0.10164362
237	0x3e8ec248	0.278826
238	0x3d6c4378	0.05768153
239	0xbe6a73da	-0.22895756
240	0x3dd61fa8	0.10455257
241	0xbd976274	-0.07391825
242	0xbe722f07	-0.23650752
243	0xbd5127b8	-0.05106327
244	0x3dd6e394	0.10492626
245	0xbd444524	-0.0479175
246	0xbe6babb4	-0.23014718
247	0x3dbe6da4	0.09298256
248	0xbe1b4e96	-0.15166697
249	0xbe93473a	-0.2876528
250	0x3e80688a	0.25079757
251	0x3e194c2c	0.14970464
252	0xbe889ba7	-0.26681253
253	0x3c9ccc10	0.019140273
254	0xbe4769ce	-0.19473955
255	0xbe353588	-0.17696202

body.4.block.1.weight f4 [24]
0	0x3f800000	1.0
1	0x3f800000	1.0
2	0x3f800000	1.0
3	0x3f800000	1.0
4	0x3f800000	1.0
5	0x3f800000	1.0
6	0x3f800000	1.0
7	0x3f800000	1.0
8	0x3f800000	1.0
9	0x3f800000	1.0
10	0x3f800000	1.0
11	0x3f800000	1.0
12	0x3f800000	1.0
13	0x3f800000	1.0
14	0x3f800000	1.0
15	0x3f800000	1.0
16	0x3f800000	1.0
17	0x3f800000	1.0
18	0x3f800000	1.0
19	0x3f800000	1.0
20	0x3f800000	1.0
21	0x3f800000	1.0
22	0x3f800000	1.0
23	0x3f800000	1.0

body.4.block.1.bias f4 [24]
0	0x00000000	0.0
1	0x00000000	0.0
2	0x00000000	0.0
3	0x00000000	0.0
4	0x00000000	0.0
5	0x00000000	0.0
6	0x00000000	0.0
7	0x00000000	0.0
8	0x00000000	0.0
9	0x00000000	0.0
10	0x00000000	0.0
11	0x00000000	0.0
12	0x00000000	0.0
13	0x00000000	0.0
14	0x00000000	0.0
15	0x00000000	0.0
16	0x00000000	0.0
17	0x00000000	0.0
18	0x00000000	0.0
19	0x00000000	0.0
20	0x00000000	0.0
21	0x00000000	0.0
22	0x00000000	0.0
23	0x00000000	0.0

body.4.block.1.running_mean f4 [24]
0	0x00000000	0.0
1	0x00000000	0.0
2	0x00000000	0.0
3	0x00000000	0.0
4	0x00000000	0.0
5	0x00000000	0.0
6	0x00000000	0.0
7	0x00000000	0.0
8	0x00000000	0.0
9	0x00000000	0.0
10	0x00000000	0.0
11	0x00000000	0.0
12	0x00000000	0.0
13	0x00000000	0.0
14	0x00000000	0.0
15	0x00000000	0.0
16	0x00000000	0.0
17	0x00000000	0.0
18	0x00000000	0.0
19	0x00000000	0.0
20	0x00000000	0.0
21	0x00000000	0.0
22	0x00000000	0.0
23	0x00000000	0.0

body.4.block.1.running_var f4 [24]
0	0x3f800000	1.0
1	0x3f800000	1.0
2	0x3f800000	1.0
3	0x3f800000	1.0
4	0x3f800000	1.0
5	0x3f800000	1.0
6	0x3f800000	1.0
7	0x3f800000	1.0
8	0x3f800000	1.0
9	0x3f800000	1.0
10	0x3f800000	1.0
11	0x3f800000	1.0
12	0x3f800000	1.0
13	0x3f800000	1.0
14	0x3f800000	1.0
15	0x3f800000	1.0
16	0x3f800000	1.0
17	0x3f800000	1.0
18	0x3f800000	1.0
19	0x3f800000	1.0
20	0x3f800000	1.0
21	0x3f800000	1.0
22	0x3f800000	1.0
23	0x3f800000	1.0
